…
dp1_pb2_conv1 (TimeDistributed) (None, 20, 8, 8, 480 242400      dp1_pb2_act1[0][0]               
__________________________________________________________________________________________________
dp1_pb2_bn2 (BatchNormalization (None, 20, 8, 8, 480 1920        dp1_pb2_conv1[0][0]              
__________________________________________________________________________________________________
dp1_pb2_heatmaps_act1 (Activati (None, 20, 8, 8, 480 0           dp1_pb2_bn2[0][0]                
__________________________________________________________________________________________________
dp1_pb2_heatmaps_conv1 (TimeDis (None, 20, 8, 8, 17) 8160        dp1_pb2_heatmaps_act1[0][0]      
__________________________________________________________________________________________________
dp1_pb2_heatmaps_fw_maps (TimeD (None, 20, 8, 8, 17) 8160        dp1_pb2_heatmaps_act1[0][0]      
__________________________________________________________________________________________________
dp1_pb2_depthmaps_act1 (Activat (None, 20, 8, 8, 480 0           dp1_pb2_bn2[0][0]                
__________________________________________________________________________________________________
concatenate_4 (Concatenate)     (None, 20, 8, 8, 34) 0           dp1_pb2_heatmaps_fw_maps[0][0]   
                                                                 dp1_pb2_heatmaps_conv1[0][0]     
__________________________________________________________________________________________________
dp1_pb2_depthmaps_conv1 (TimeDi (None, 20, 8, 8, 17) 8160        dp1_pb2_depthmaps_act1[0][0]     
__________________________________________________________________________________________________
dp1_pb2_heatmaps_act2 (Activati (None, 20, 8, 8, 34) 0           concatenate_4[0][0]              
__________________________________________________________________________________________________
dp1_pb2_heatmaps_conv2 (TimeDis (None, 20, 8, 8, 480 16320       dp1_pb2_heatmaps_act2[0][0]      
__________________________________________________________________________________________________
dp1_pb2_depthmaps_conv2 (TimeDi (None, 20, 8, 8, 480 8160        dp1_pb2_depthmaps_conv1[0][0]    
…
dp1_pb3_conv1 (TimeDistributed) (None, 20, 4, 4, 576 346176      dp1_pb3_act1[0][0]               
__________________________________________________________________________________________________
dp1_pb3_bn2 (BatchNormalization (None, 20, 4, 4, 576 2304        dp1_pb3_conv1[0][0]              
__________________________________________________________________________________________________
dp1_pb3_heatmaps_act1 (Activati (None, 20, 4, 4, 576 0           dp1_pb3_bn2[0][0]                
__________________________________________________________________________________________________
dp1_pb3_heatmaps_conv1 (TimeDis (None, 20, 4, 4, 17) 9792        dp1_pb3_heatmaps_act1[0][0]      
__________________________________________________________________________________________________
dp1_pb3_heatmaps_fw_maps (TimeD (None, 20, 4, 4, 17) 9792        dp1_pb3_heatmaps_act1[0][0]      
__________________________________________________________________________________________________
dp1_pb3_depthmaps_act1 (Activat (None, 20, 4, 4, 576 0           dp1_pb3_bn2[0][0]                
__________________________________________________________________________________________________
concatenate_7 (Concatenate)     (None, 20, 4, 4, 34) 0           dp1_pb3_heatmaps_fw_maps[0][0]   
                                                                 dp1_pb3_heatmaps_conv1[0][0]     
__________________________________________________________________________________________________
dp1_pb3_depthmaps_conv1 (TimeDi (None, 20, 4, 4, 17) 9792        dp1_pb3_depthmaps_act1[0][0]     
__________________________________________________________________________________________________
dp1_pb3_heatmaps_act2 (Activati (None, 20, 4, 4, 34) 0           concatenate_7[0][0]              
__________________________________________________________________________________________________
dp1_pb3_heatmaps_conv2 (TimeDis (None, 20, 4, 4, 576 19584       dp1_pb3_heatmaps_act2[0][0]      
__________________________________________________________________________________________________
dp1_pb3_depthmaps_conv2 (TimeDi (None, 20, 4, 4, 576 9792        dp1_pb3_depthmaps_conv1[0][0]    
…
up2_pb0_heatmaps_act1 (Activati (None, 20, 32, 32, 2 0           up2_pb0_bn2[0][0]                
__________________________________________________________________________________________________
up2_pb0_heatmaps_conv1 (TimeDis (None, 20, 32, 32, 1 4896        up2_pb0_heatmaps_act1[0][0]      
__________________________________________________________________________________________________
dp1_pb1_probmaps (Activation)   (None, 20, 16, 16, 1 0           dp1_pb1_heatmaps_conv1[0][0]     
__________________________________________________________________________________________________
dp1_pb2_probmaps (Activation)   (None, 20, 8, 8, 17) 0           dp1_pb2_heatmaps_conv1[0][0]     
__________________________________________________________________________________________________
dp1_pb3_probmaps (Activation)   (None, 20, 4, 4, 17) 0           dp1_pb3_heatmaps_conv1[0][0]     
__________________________________________________________________________________________________
up2_pb2_probmaps (Activation)   (None, 20, 8, 8, 17) 0           up2_pb2_heatmaps_conv1[0][0]     
__________________________________________________________________________________________________
up2_pb1_probmaps (Activation)   (None, 20, 16, 16, 1 0           up2_pb1_heatmaps_conv1[0][0]     
__________________________________________________________________________________________________
up2_pb0_probmaps (Activation)   (None, 20, 32, 32, 1 0           up2_pb0_heatmaps_conv1[0][0]     
__________________________________________________________________________________________________
up2_pb0_depthmaps_act1 (Activat (None, 20, 32, 32, 2 0           up2_pb0_bn2[0][0]                
__________________________________________________________________________________________________
dp1_pb1_xy_x (TimeDistributed)  (None, 20, 1, 1, 17) 4641        dp1_pb1_probmaps[0][0]           
__________________________________________________________________________________________________
dp1_pb1_xy_y (TimeDistributed)  (None, 20, 1, 1, 17) 4641        dp1_pb1_probmaps[0][0]           
__________________________________________________________________________________________________
dp1_pb2_xy_x (TimeDistributed)  (None, 20, 1, 1, 17) 1377        dp1_pb2_probmaps[0][0]           
__________________________________________________________________________________________________
dp1_pb2_xy_y (TimeDistributed)  (None, 20, 1, 1, 17) 1377        dp1_pb2_probmaps[0][0]           
__________________________________________________________________________________________________
dp1_pb3_xy_x (TimeDistributed)  (None, 20, 1, 1, 17) 561         dp1_pb3_probmaps[0][0]           
__________________________________________________________________________________________________
dp1_pb3_xy_y (TimeDistributed)  (None, 20, 1, 1, 17) 561         dp1_pb3_probmaps[0][0]           
__________________________________________________________________________________________________
up2_pb2_xy_x (TimeDistributed)  (None, 20, 1, 1, 17) 1377        up2_pb2_probmaps[0][0]           
__________________________________________________________________________________________________
up2_pb2_xy_y (TimeDistributed)  (None, 20, 1, 1, 17) 1377        up2_pb2_probmaps[0][0]           
__________________________________________________________________________________________________
up2_pb1_xy_x (TimeDistributed)  (None, 20, 1, 1, 17) 4641        up2_pb1_probmaps[0][0]           
__________________________________________________________________________________________________
up2_pb1_xy_y (TimeDistributed)  (None, 20, 1, 1, 17) 4641        up2_pb1_probmaps[0][0]           
__________________________________________________________________________________________________
up2_pb0_xy_x (TimeDistributed)  (None, 20, 1, 1, 17) 17697       up2_pb0_probmaps[0][0]           
__________________________________________________________________________________________________
up2_pb0_xy_y (TimeDistributed)  (None, 20, 1, 1, 17) 17697       up2_pb0_probmaps[0][0]           
__________________________________________________________________________________________________
up2_pb0_depthmaps_conv1 (TimeDi (None, 20, 32, 32, 1 4896        up2_pb0_depthmaps_act1[0][0]     
__________________________________________________________________________________________________
lambda_1 (Lambda)               (None, 20, 1, 17)    0           dp1_pb1_xy_x[0][0]               
__________________________________________________________________________________________________
lambda_4 (Lambda)               (None, 20, 1, 17)    0           dp1_pb1_xy_y[0][0]               
__________________________________________________________________________________________________
activation_1 (Activation)       (None, 20, 16, 16, 1 0           dp1_pb1_depthmaps_conv1[0][0]    
__________________________________________________________________________________________________
lambda_19 (Lambda)              (None, 20, 1, 17)    0           dp1_pb2_xy_x[0][0]               
__________________________________________________________________________________________________
lambda_22 (Lambda)              (None, 20, 1, 17)    0           dp1_pb2_xy_y[0][0]               
__________________________________________________________________________________________________
activation_3 (Activation)       (None, 20, 8, 8, 17) 0           dp1_pb2_depthmaps_conv1[0][0]    
__________________________________________________________________________________________________
lambda_37 (Lambda)              (None, 20, 1, 17)    0           dp1_pb3_xy_x[0][0]               
__________________________________________________________________________________________________
lambda_40 (Lambda)              (None, 20, 1, 17)    0           dp1_pb3_xy_y[0][0]               
__________________________________________________________________________________________________
activation_5 (Activation)       (None, 20, 4, 4, 17) 0           dp1_pb3_depthmaps_conv1[0][0]    
__________________________________________________________________________________________________
lambda_55 (Lambda)              (None, 20, 1, 17)    0           up2_pb2_xy_x[0][0]               
__________________________________________________________________________________________________
lambda_58 (Lambda)              (None, 20, 1, 17)    0           up2_pb2_xy_y[0][0]               
__________________________________________________________________________________________________
activation_7 (Activation)       (None, 20, 8, 8, 17) 0           up2_pb2_depthmaps_conv1[0][0]    
__________________________________________________________________________________________________
lambda_73 (Lambda)              (None, 20, 1, 17)    0           up2_pb1_xy_x[0][0]               
__________________________________________________________________________________________________
lambda_76 (Lambda)              (None, 20, 1, 17)    0           up2_pb1_xy_y[0][0]               
__________________________________________________________________________________________________
activation_9 (Activation)       (None, 20, 16, 16, 1 0           up2_pb1_depthmaps_conv1[0][0]    
__________________________________________________________________________________________________
lambda_91 (Lambda)              (None, 20, 1, 17)    0           up2_pb0_xy_x[0][0]               
__________________________________________________________________________________________________
lambda_94 (Lambda)              (None, 20, 1, 17)    0           up2_pb0_xy_y[0][0]               
__________________________________________________________________________________________________
activation_11 (Activation)      (None, 20, 32, 32, 1 0           up2_pb0_depthmaps_conv1[0][0]    
__________________________________________________________________________________________________
lambda_2 (Lambda)               (None, 20, 17)       0           lambda_1[0][0]                   
__________________________________________________________________________________________________
lambda_5 (Lambda)               (None, 20, 17)       0           lambda_4[0][0]                   
__________________________________________________________________________________________________
multiply_1 (Multiply)           (None, 20, 16, 16, 1 0           activation_1[0][0]               
                                                                 dp1_pb1_probmaps[0][0]           
__________________________________________________________________________________________________
lambda_20 (Lambda)              (None, 20, 17)       0           lambda_19[0][0]                  
__________________________________________________________________________________________________
lambda_23 (Lambda)              (None, 20, 17)       0           lambda_22[0][0]                  
__________________________________________________________________________________________________
multiply_3 (Multiply)           (None, 20, 8, 8, 17) 0           activation_3[0][0]               
                                                                 dp1_pb2_probmaps[0][0]           
__________________________________________________________________________________________________
lambda_38 (Lambda)              (None, 20, 17)       0           lambda_37[0][0]                  
__________________________________________________________________________________________________
lambda_41 (Lambda)              (None, 20, 17)       0           lambda_40[0][0]                  
__________________________________________________________________________________________________
multiply_5 (Multiply)           (None, 20, 4, 4, 17) 0           activation_5[0][0]               
                                                                 dp1_pb3_probmaps[0][0]           
__________________________________________________________________________________________________
lambda_56 (Lambda)              (None, 20, 17)       0           lambda_55[0][0]                  
__________________________________________________________________________________________________
lambda_59 (Lambda)              (None, 20, 17)       0           lambda_58[0][0]                  
__________________________________________________________________________________________________
multiply_7 (Multiply)           (None, 20, 8, 8, 17) 0           activation_7[0][0]               
                                                                 up2_pb2_probmaps[0][0]           
__________________________________________________________________________________________________
lambda_74 (Lambda)              (None, 20, 17)       0           lambda_73[0][0]                  
__________________________________________________________________________________________________
lambda_77 (Lambda)              (None, 20, 17)       0           lambda_76[0][0]                  
__________________________________________________________________________________________________
multiply_9 (Multiply)           (None, 20, 16, 16, 1 0           activation_9[0][0]               
                                                                 up2_pb1_probmaps[0][0]           
__________________________________________________________________________________________________
lambda_92 (Lambda)              (None, 20, 17)       0           lambda_91[0][0]                  
__________________________________________________________________________________________________
lambda_95 (Lambda)              (None, 20, 17)       0           lambda_94[0][0]                  
__________________________________________________________________________________________________
multiply_11 (Multiply)          (None, 20, 32, 32, 1 0           activation_11[0][0]              
                                                                 up2_pb0_probmaps[0][0]           
__________________________________________________________________________________________________
lambda_3 (Lambda)               (None, 20, 17, 1)    0           lambda_2[0][0]                   
__________________________________________________________________________________________________
lambda_6 (Lambda)               (None, 20, 17, 1)    0           lambda_5[0][0]                   
__________________________________________________________________________________________________
lambda_7 (Lambda)               (None, 20, 17)       0           multiply_1[0][0]                 
__________________________________________________________________________________________________
lambda_21 (Lambda)              (None, 20, 17, 1)    0           lambda_20[0][0]                  
__________________________________________________________________________________________________
lambda_24 (Lambda)              (None, 20, 17, 1)    0           lambda_23[0][0]                  
__________________________________________________________________________________________________
lambda_25 (Lambda)              (None, 20, 17)       0           multiply_3[0][0]                 
__________________________________________________________________________________________________
lambda_39 (Lambda)              (None, 20, 17, 1)    0           lambda_38[0][0]                  
__________________________________________________________________________________________________
lambda_42 (Lambda)              (None, 20, 17, 1)    0           lambda_41[0][0]                  
__________________________________________________________________________________________________
lambda_43 (Lambda)              (None, 20, 17)       0           multiply_5[0][0]                 
__________________________________________________________________________________________________
lambda_57 (Lambda)              (None, 20, 17, 1)    0           lambda_56[0][0]                  
__________________________________________________________________________________________________
lambda_60 (Lambda)              (None, 20, 17, 1)    0           lambda_59[0][0]                  
__________________________________________________________________________________________________
lambda_61 (Lambda)              (None, 20, 17)       0           multiply_7[0][0]                 
__________________________________________________________________________________________________
lambda_75 (Lambda)              (None, 20, 17, 1)    0           lambda_74[0][0]                  
__________________________________________________________________________________________________
lambda_78 (Lambda)              (None, 20, 17, 1)    0           lambda_77[0][0]                  
__________________________________________________________________________________________________
lambda_79 (Lambda)              (None, 20, 17)       0           multiply_9[0][0]                 
__________________________________________________________________________________________________
lambda_93 (Lambda)              (None, 20, 17, 1)    0           lambda_92[0][0]                  
__________________________________________________________________________________________________
lambda_96 (Lambda)              (None, 20, 17, 1)    0           lambda_95[0][0]                  
__________________________________________________________________________________________________
lambda_97 (Lambda)              (None, 20, 17)       0           multiply_11[0][0]                
__________________________________________________________________________________________________
dp1_pb1_xy (Concatenate)        (None, 20, 17, 2)    0           lambda_3[0][0]                   
                                                                 lambda_6[0][0]                   
__________________________________________________________________________________________________
lambda_8 (Lambda)               (None, 20, 17, 1)    0           lambda_7[0][0]                   
__________________________________________________________________________________________________
dp1_pb2_xy (Concatenate)        (None, 20, 17, 2)    0           lambda_21[0][0]                  
                                                                 lambda_24[0][0]                  
__________________________________________________________________________________________________
lambda_26 (Lambda)              (None, 20, 17, 1)    0           lambda_25[0][0]                  
__________________________________________________________________________________________________
dp1_pb3_xy (Concatenate)        (None, 20, 17, 2)    0           lambda_39[0][0]                  
                                                                 lambda_42[0][0]                  
__________________________________________________________________________________________________
lambda_44 (Lambda)              (None, 20, 17, 1)    0           lambda_43[0][0]                  
__________________________________________________________________________________________________
up2_pb2_xy (Concatenate)        (None, 20, 17, 2)    0           lambda_57[0][0]                  
                                                                 lambda_60[0][0]                  
__________________________________________________________________________________________________
lambda_62 (Lambda)              (None, 20, 17, 1)    0           lambda_61[0][0]                  
__________________________________________________________________________________________________
up2_pb1_xy (Concatenate)        (None, 20, 17, 2)    0           lambda_75[0][0]                  
                                                                 lambda_78[0][0]                  
__________________________________________________________________________________________________
lambda_80 (Lambda)              (None, 20, 17, 1)    0           lambda_79[0][0]                  
__________________________________________________________________________________________________
up2_pb0_xy (Concatenate)        (None, 20, 17, 2)    0           lambda_93[0][0]                  
                                                                 lambda_96[0][0]                  
__________________________________________________________________________________________________
lambda_98 (Lambda)              (None, 20, 17, 1)    0           lambda_97[0][0]                  
__________________________________________________________________________________________________
dp1_pb1_xyz (Concatenate)       (None, 20, 17, 3)    0           dp1_pb1_xy[0][0]                 
                                                                 lambda_8[0][0]                   
__________________________________________________________________________________________________
dp1_pb1_vis (TimeDistributed)   (None, 20, 17, 1)    0           dp1_pb1_probmaps[0][0]           
__________________________________________________________________________________________________
dp1_pb2_xyz (Concatenate)       (None, 20, 17, 3)    0           dp1_pb2_xy[0][0]                 
                                                                 lambda_26[0][0]                  
__________________________________________________________________________________________________
dp1_pb2_vis (TimeDistributed)   (None, 20, 17, 1)    0           dp1_pb2_probmaps[0][0]           
__________________________________________________________________________________________________
dp1_pb3_xyz (Concatenate)       (None, 20, 17, 3)    0           dp1_pb3_xy[0][0]                 
                                                                 lambda_44[0][0]                  
__________________________________________________________________________________________________
dp1_pb3_vis (TimeDistributed)   (None, 20, 17, 1)    0           dp1_pb3_probmaps[0][0]           
__________________________________________________________________________________________________
up2_pb2_xyz (Concatenate)       (None, 20, 17, 3)    0           up2_pb2_xy[0][0]                 
                                                                 lambda_62[0][0]                  
__________________________________________________________________________________________________
up2_pb2_vis (TimeDistributed)   (None, 20, 17, 1)    0           up2_pb2_probmaps[0][0]           
__________________________________________________________________________________________________
up2_pb1_xyz (Concatenate)       (None, 20, 17, 3)    0           up2_pb1_xy[0][0]                 
                                                                 lambda_80[0][0]                  
__________________________________________________________________________________________________
up2_pb1_vis (TimeDistributed)   (None, 20, 17, 1)    0           up2_pb1_probmaps[0][0]           
__________________________________________________________________________________________________
up2_pb0_xyz (Concatenate)       (None, 20, 17, 3)    0           up2_pb0_xy[0][0]                 
                                                                 lambda_98[0][0]                  
__________________________________________________________________________________________________
up2_pb0_vis (TimeDistributed)   (None, 20, 17, 1)    0           up2_pb0_probmaps[0][0]           
__________________________________________________________________________________________________
dp1_pb1 (Concatenate)           (None, 20, 17, 4)    0           dp1_pb1_xyz[0][0]                
                                                                 dp1_pb1_vis[0][0]                
__________________________________________________________________________________________________
dp1_pb2 (Concatenate)           (None, 20, 17, 4)    0           dp1_pb2_xyz[0][0]                
                                                                 dp1_pb2_vis[0][0]                
__________________________________________________________________________________________________
dp1_pb3 (Concatenate)           (None, 20, 17, 4)    0           dp1_pb3_xyz[0][0]                
                                                                 dp1_pb3_vis[0][0]                
__________________________________________________________________________________________________
up2_pb2 (Concatenate)           (None, 20, 17, 4)    0           up2_pb2_xyz[0][0]                
                                                                 up2_pb2_vis[0][0]                
__________________________________________________________________________________________________
up2_pb1 (Concatenate)           (None, 20, 17, 4)    0           up2_pb1_xyz[0][0]                
                                                                 up2_pb1_vis[0][0]                
__________________________________________________________________________________________________
up2_pb0 (Concatenate)           (None, 20, 17, 4)    0           up2_pb0_xyz[0][0]                
                                                                 up2_pb0_vis[0][0]                
==================================================================================================
Total params: 6,481,996
Trainable params: 6,397,952
Non-trainable params: 84,044
__________________________________________________________________________________________________
