…
up6_pb0_heatmaps_act1 (Activati (None, 16, 32, 32, 2 0           up6_pb0_bn2[0][0]                
__________________________________________________________________________________________________
up6_pb0_heatmaps_conv1 (TimeDis (None, 16, 32, 32, 1 4608        up6_pb0_heatmaps_act1[0][0]      
__________________________________________________________________________________________________
dp1_pb1_probmaps (Activation)   (None, 16, 16, 16, 1 0           dp1_pb1_heatmaps_conv1[0][0]     
__________________________________________________________________________________________________
dp1_pb2_probmaps (Activation)   (None, 16, 8, 8, 16) 0           dp1_pb2_heatmaps_conv1[0][0]     
__________________________________________________________________________________________________
dp1_pb3_probmaps (Activation)   (None, 16, 4, 4, 16) 0           dp1_pb3_heatmaps_conv1[0][0]     
__________________________________________________________________________________________________
up2_pb2_probmaps (Activation)   (None, 16, 8, 8, 16) 0           up2_pb2_heatmaps_conv1[0][0]     
__________________________________________________________________________________________________
up2_pb1_probmaps (Activation)   (None, 16, 16, 16, 1 0           up2_pb1_heatmaps_conv1[0][0]     
__________________________________________________________________________________________________
up2_pb0_probmaps (Activation)   (None, 16, 32, 32, 1 0           up2_pb0_heatmaps_conv1[0][0]     
__________________________________________________________________________________________________
dp3_pb1_probmaps (Activation)   (None, 16, 16, 16, 1 0           dp3_pb1_heatmaps_conv1[0][0]     
__________________________________________________________________________________________________
dp3_pb2_probmaps (Activation)   (None, 16, 8, 8, 16) 0           dp3_pb2_heatmaps_conv1[0][0]     
__________________________________________________________________________________________________
dp3_pb3_probmaps (Activation)   (None, 16, 4, 4, 16) 0           dp3_pb3_heatmaps_conv1[0][0]     
__________________________________________________________________________________________________
up4_pb2_probmaps (Activation)   (None, 16, 8, 8, 16) 0           up4_pb2_heatmaps_conv1[0][0]     
__________________________________________________________________________________________________
up4_pb1_probmaps (Activation)   (None, 16, 16, 16, 1 0           up4_pb1_heatmaps_conv1[0][0]     
__________________________________________________________________________________________________
up4_pb0_probmaps (Activation)   (None, 16, 32, 32, 1 0           up4_pb0_heatmaps_conv1[0][0]     
__________________________________________________________________________________________________
dp5_pb1_probmaps (Activation)   (None, 16, 16, 16, 1 0           dp5_pb1_heatmaps_conv1[0][0]     
__________________________________________________________________________________________________
dp5_pb2_probmaps (Activation)   (None, 16, 8, 8, 16) 0           dp5_pb2_heatmaps_conv1[0][0]     
__________________________________________________________________________________________________
dp5_pb3_probmaps (Activation)   (None, 16, 4, 4, 16) 0           dp5_pb3_heatmaps_conv1[0][0]     
__________________________________________________________________________________________________
up6_pb2_probmaps (Activation)   (None, 16, 8, 8, 16) 0           up6_pb2_heatmaps_conv1[0][0]     
__________________________________________________________________________________________________
up6_pb1_probmaps (Activation)   (None, 16, 16, 16, 1 0           up6_pb1_heatmaps_conv1[0][0]     
__________________________________________________________________________________________________
up6_pb0_probmaps (Activation)   (None, 16, 32, 32, 1 0           up6_pb0_heatmaps_conv1[0][0]     
__________________________________________________________________________________________________
dp1_pb1_xy_x (TimeDistributed)  (None, 16, 1, 1, 16) 4352        dp1_pb1_probmaps[0][0]           
__________________________________________________________________________________________________
dp1_pb1_xy_y (TimeDistributed)  (None, 16, 1, 1, 16) 4352        dp1_pb1_probmaps[0][0]           
__________________________________________________________________________________________________
dp1_pb2_xy_x (TimeDistributed)  (None, 16, 1, 1, 16) 1280        dp1_pb2_probmaps[0][0]           
__________________________________________________________________________________________________
dp1_pb2_xy_y (TimeDistributed)  (None, 16, 1, 1, 16) 1280        dp1_pb2_probmaps[0][0]           
__________________________________________________________________________________________________
dp1_pb3_xy_x (TimeDistributed)  (None, 16, 1, 1, 16) 512         dp1_pb3_probmaps[0][0]           
__________________________________________________________________________________________________
dp1_pb3_xy_y (TimeDistributed)  (None, 16, 1, 1, 16) 512         dp1_pb3_probmaps[0][0]           
__________________________________________________________________________________________________
up2_pb2_xy_x (TimeDistributed)  (None, 16, 1, 1, 16) 1280        up2_pb2_probmaps[0][0]           
__________________________________________________________________________________________________
up2_pb2_xy_y (TimeDistributed)  (None, 16, 1, 1, 16) 1280        up2_pb2_probmaps[0][0]           
__________________________________________________________________________________________________
up2_pb1_xy_x (TimeDistributed)  (None, 16, 1, 1, 16) 4352        up2_pb1_probmaps[0][0]           
__________________________________________________________________________________________________
up2_pb1_xy_y (TimeDistributed)  (None, 16, 1, 1, 16) 4352        up2_pb1_probmaps[0][0]           
__________________________________________________________________________________________________
up2_pb0_xy_x (TimeDistributed)  (None, 16, 1, 1, 16) 16640       up2_pb0_probmaps[0][0]           
__________________________________________________________________________________________________
up2_pb0_xy_y (TimeDistributed)  (None, 16, 1, 1, 16) 16640       up2_pb0_probmaps[0][0]           
__________________________________________________________________________________________________
dp3_pb1_xy_x (TimeDistributed)  (None, 16, 1, 1, 16) 4352        dp3_pb1_probmaps[0][0]           
__________________________________________________________________________________________________
dp3_pb1_xy_y (TimeDistributed)  (None, 16, 1, 1, 16) 4352        dp3_pb1_probmaps[0][0]           
__________________________________________________________________________________________________
dp3_pb2_xy_x (TimeDistributed)  (None, 16, 1, 1, 16) 1280        dp3_pb2_probmaps[0][0]           
__________________________________________________________________________________________________
dp3_pb2_xy_y (TimeDistributed)  (None, 16, 1, 1, 16) 1280        dp3_pb2_probmaps[0][0]           
__________________________________________________________________________________________________
dp3_pb3_xy_x (TimeDistributed)  (None, 16, 1, 1, 16) 512         dp3_pb3_probmaps[0][0]           
__________________________________________________________________________________________________
dp3_pb3_xy_y (TimeDistributed)  (None, 16, 1, 1, 16) 512         dp3_pb3_probmaps[0][0]           
__________________________________________________________________________________________________
up4_pb2_xy_x (TimeDistributed)  (None, 16, 1, 1, 16) 1280        up4_pb2_probmaps[0][0]           
__________________________________________________________________________________________________
up4_pb2_xy_y (TimeDistributed)  (None, 16, 1, 1, 16) 1280        up4_pb2_probmaps[0][0]           
__________________________________________________________________________________________________
up4_pb1_xy_x (TimeDistributed)  (None, 16, 1, 1, 16) 4352        up4_pb1_probmaps[0][0]           
__________________________________________________________________________________________________
up4_pb1_xy_y (TimeDistributed)  (None, 16, 1, 1, 16) 4352        up4_pb1_probmaps[0][0]           
__________________________________________________________________________________________________
up4_pb0_xy_x (TimeDistributed)  (None, 16, 1, 1, 16) 16640       up4_pb0_probmaps[0][0]           
__________________________________________________________________________________________________
up4_pb0_xy_y (TimeDistributed)  (None, 16, 1, 1, 16) 16640       up4_pb0_probmaps[0][0]           
__________________________________________________________________________________________________
dp5_pb1_xy_x (TimeDistributed)  (None, 16, 1, 1, 16) 4352        dp5_pb1_probmaps[0][0]           
__________________________________________________________________________________________________
dp5_pb1_xy_y (TimeDistributed)  (None, 16, 1, 1, 16) 4352        dp5_pb1_probmaps[0][0]           
__________________________________________________________________________________________________
dp5_pb2_xy_x (TimeDistributed)  (None, 16, 1, 1, 16) 1280        dp5_pb2_probmaps[0][0]           
__________________________________________________________________________________________________
dp5_pb2_xy_y (TimeDistributed)  (None, 16, 1, 1, 16) 1280        dp5_pb2_probmaps[0][0]           
__________________________________________________________________________________________________
dp5_pb3_xy_x (TimeDistributed)  (None, 16, 1, 1, 16) 512         dp5_pb3_probmaps[0][0]           
__________________________________________________________________________________________________
dp5_pb3_xy_y (TimeDistributed)  (None, 16, 1, 1, 16) 512         dp5_pb3_probmaps[0][0]           
__________________________________________________________________________________________________
up6_pb2_xy_x (TimeDistributed)  (None, 16, 1, 1, 16) 1280        up6_pb2_probmaps[0][0]           
__________________________________________________________________________________________________
up6_pb2_xy_y (TimeDistributed)  (None, 16, 1, 1, 16) 1280        up6_pb2_probmaps[0][0]           
__________________________________________________________________________________________________
up6_pb1_xy_x (TimeDistributed)  (None, 16, 1, 1, 16) 4352        up6_pb1_probmaps[0][0]           
__________________________________________________________________________________________________
up6_pb1_xy_y (TimeDistributed)  (None, 16, 1, 1, 16) 4352        up6_pb1_probmaps[0][0]           
__________________________________________________________________________________________________
up6_pb0_xy_x (TimeDistributed)  (None, 16, 1, 1, 16) 16640       up6_pb0_probmaps[0][0]           
__________________________________________________________________________________________________
up6_pb0_xy_y (TimeDistributed)  (None, 16, 1, 1, 16) 16640       up6_pb0_probmaps[0][0]           
__________________________________________________________________________________________________
lambda_1 (Lambda)               (None, 16, 1, 16)    0           dp1_pb1_xy_x[0][0]               
__________________________________________________________________________________________________
lambda_4 (Lambda)               (None, 16, 1, 16)    0           dp1_pb1_xy_y[0][0]               
__________________________________________________________________________________________________
lambda_7 (Lambda)               (None, 16, 1, 16)    0           dp1_pb2_xy_x[0][0]               
__________________________________________________________________________________________________
lambda_10 (Lambda)              (None, 16, 1, 16)    0           dp1_pb2_xy_y[0][0]               
__________________________________________________________________________________________________
lambda_13 (Lambda)              (None, 16, 1, 16)    0           dp1_pb3_xy_x[0][0]               
__________________________________________________________________________________________________
lambda_16 (Lambda)              (None, 16, 1, 16)    0           dp1_pb3_xy_y[0][0]               
__________________________________________________________________________________________________
lambda_19 (Lambda)              (None, 16, 1, 16)    0           up2_pb2_xy_x[0][0]               
__________________________________________________________________________________________________
lambda_22 (Lambda)              (None, 16, 1, 16)    0           up2_pb2_xy_y[0][0]               
__________________________________________________________________________________________________
lambda_25 (Lambda)              (None, 16, 1, 16)    0           up2_pb1_xy_x[0][0]               
__________________________________________________________________________________________________
lambda_28 (Lambda)              (None, 16, 1, 16)    0           up2_pb1_xy_y[0][0]               
__________________________________________________________________________________________________
lambda_31 (Lambda)              (None, 16, 1, 16)    0           up2_pb0_xy_x[0][0]               
__________________________________________________________________________________________________
lambda_34 (Lambda)              (None, 16, 1, 16)    0           up2_pb0_xy_y[0][0]               
__________________________________________________________________________________________________
lambda_37 (Lambda)              (None, 16, 1, 16)    0           dp3_pb1_xy_x[0][0]               
__________________________________________________________________________________________________
lambda_40 (Lambda)              (None, 16, 1, 16)    0           dp3_pb1_xy_y[0][0]               
__________________________________________________________________________________________________
lambda_43 (Lambda)              (None, 16, 1, 16)    0           dp3_pb2_xy_x[0][0]               
__________________________________________________________________________________________________
lambda_46 (Lambda)              (None, 16, 1, 16)    0           dp3_pb2_xy_y[0][0]               
__________________________________________________________________________________________________
lambda_49 (Lambda)              (None, 16, 1, 16)    0           dp3_pb3_xy_x[0][0]               
__________________________________________________________________________________________________
lambda_52 (Lambda)              (None, 16, 1, 16)    0           dp3_pb3_xy_y[0][0]               
__________________________________________________________________________________________________
lambda_55 (Lambda)              (None, 16, 1, 16)    0           up4_pb2_xy_x[0][0]               
__________________________________________________________________________________________________
lambda_58 (Lambda)              (None, 16, 1, 16)    0           up4_pb2_xy_y[0][0]               
__________________________________________________________________________________________________
lambda_61 (Lambda)              (None, 16, 1, 16)    0           up4_pb1_xy_x[0][0]               
__________________________________________________________________________________________________
lambda_64 (Lambda)              (None, 16, 1, 16)    0           up4_pb1_xy_y[0][0]               
__________________________________________________________________________________________________
lambda_67 (Lambda)              (None, 16, 1, 16)    0           up4_pb0_xy_x[0][0]               
__________________________________________________________________________________________________
lambda_70 (Lambda)              (None, 16, 1, 16)    0           up4_pb0_xy_y[0][0]               
__________________________________________________________________________________________________
lambda_73 (Lambda)              (None, 16, 1, 16)    0           dp5_pb1_xy_x[0][0]               
__________________________________________________________________________________________________
lambda_76 (Lambda)              (None, 16, 1, 16)    0           dp5_pb1_xy_y[0][0]               
__________________________________________________________________________________________________
lambda_87 (Lambda)              (None, 16, 1, 16)    0           dp5_pb2_xy_x[0][0]               
__________________________________________________________________________________________________
lambda_90 (Lambda)              (None, 16, 1, 16)    0           dp5_pb2_xy_y[0][0]               
__________________________________________________________________________________________________
lambda_101 (Lambda)             (None, 16, 1, 16)    0           dp5_pb3_xy_x[0][0]               
__________________________________________________________________________________________________
lambda_104 (Lambda)             (None, 16, 1, 16)    0           dp5_pb3_xy_y[0][0]               
__________________________________________________________________________________________________
lambda_115 (Lambda)             (None, 16, 1, 16)    0           up6_pb2_xy_x[0][0]               
__________________________________________________________________________________________________
lambda_118 (Lambda)             (None, 16, 1, 16)    0           up6_pb2_xy_y[0][0]               
__________________________________________________________________________________________________
lambda_129 (Lambda)             (None, 16, 1, 16)    0           up6_pb1_xy_x[0][0]               
__________________________________________________________________________________________________
lambda_132 (Lambda)             (None, 16, 1, 16)    0           up6_pb1_xy_y[0][0]               
__________________________________________________________________________________________________
lambda_143 (Lambda)             (None, 16, 1, 16)    0           up6_pb0_xy_x[0][0]               
__________________________________________________________________________________________________
lambda_146 (Lambda)             (None, 16, 1, 16)    0           up6_pb0_xy_y[0][0]               
__________________________________________________________________________________________________
lambda_2 (Lambda)               (None, 16, 16)       0           lambda_1[0][0]                   
__________________________________________________________________________________________________
lambda_5 (Lambda)               (None, 16, 16)       0           lambda_4[0][0]                   
__________________________________________________________________________________________________
lambda_8 (Lambda)               (None, 16, 16)       0           lambda_7[0][0]                   
__________________________________________________________________________________________________
lambda_11 (Lambda)              (None, 16, 16)       0           lambda_10[0][0]                  
__________________________________________________________________________________________________
lambda_14 (Lambda)              (None, 16, 16)       0           lambda_13[0][0]                  
__________________________________________________________________________________________________
lambda_17 (Lambda)              (None, 16, 16)       0           lambda_16[0][0]                  
__________________________________________________________________________________________________
lambda_20 (Lambda)              (None, 16, 16)       0           lambda_19[0][0]                  
__________________________________________________________________________________________________
lambda_23 (Lambda)              (None, 16, 16)       0           lambda_22[0][0]                  
__________________________________________________________________________________________________
lambda_26 (Lambda)              (None, 16, 16)       0           lambda_25[0][0]                  
__________________________________________________________________________________________________
lambda_29 (Lambda)              (None, 16, 16)       0           lambda_28[0][0]                  
__________________________________________________________________________________________________
lambda_32 (Lambda)              (None, 16, 16)       0           lambda_31[0][0]                  
__________________________________________________________________________________________________
lambda_35 (Lambda)              (None, 16, 16)       0           lambda_34[0][0]                  
__________________________________________________________________________________________________
lambda_38 (Lambda)              (None, 16, 16)       0           lambda_37[0][0]                  
__________________________________________________________________________________________________
lambda_41 (Lambda)              (None, 16, 16)       0           lambda_40[0][0]                  
__________________________________________________________________________________________________
lambda_44 (Lambda)              (None, 16, 16)       0           lambda_43[0][0]                  
__________________________________________________________________________________________________
lambda_47 (Lambda)              (None, 16, 16)       0           lambda_46[0][0]                  
__________________________________________________________________________________________________
lambda_50 (Lambda)              (None, 16, 16)       0           lambda_49[0][0]                  
__________________________________________________________________________________________________
lambda_53 (Lambda)              (None, 16, 16)       0           lambda_52[0][0]                  
__________________________________________________________________________________________________
lambda_56 (Lambda)              (None, 16, 16)       0           lambda_55[0][0]                  
__________________________________________________________________________________________________
lambda_59 (Lambda)              (None, 16, 16)       0           lambda_58[0][0]                  
__________________________________________________________________________________________________
lambda_62 (Lambda)              (None, 16, 16)       0           lambda_61[0][0]                  
__________________________________________________________________________________________________
lambda_65 (Lambda)              (None, 16, 16)       0           lambda_64[0][0]                  
__________________________________________________________________________________________________
lambda_68 (Lambda)              (None, 16, 16)       0           lambda_67[0][0]                  
__________________________________________________________________________________________________
lambda_71 (Lambda)              (None, 16, 16)       0           lambda_70[0][0]                  
__________________________________________________________________________________________________
lambda_74 (Lambda)              (None, 16, 16)       0           lambda_73[0][0]                  
__________________________________________________________________________________________________
lambda_77 (Lambda)              (None, 16, 16)       0           lambda_76[0][0]                  
__________________________________________________________________________________________________
lambda_88 (Lambda)              (None, 16, 16)       0           lambda_87[0][0]                  
__________________________________________________________________________________________________
lambda_91 (Lambda)              (None, 16, 16)       0           lambda_90[0][0]                  
__________________________________________________________________________________________________
lambda_102 (Lambda)             (None, 16, 16)       0           lambda_101[0][0]                 
__________________________________________________________________________________________________
lambda_105 (Lambda)             (None, 16, 16)       0           lambda_104[0][0]                 
__________________________________________________________________________________________________
lambda_116 (Lambda)             (None, 16, 16)       0           lambda_115[0][0]                 
__________________________________________________________________________________________________
lambda_119 (Lambda)             (None, 16, 16)       0           lambda_118[0][0]                 
__________________________________________________________________________________________________
lambda_130 (Lambda)             (None, 16, 16)       0           lambda_129[0][0]                 
__________________________________________________________________________________________________
lambda_133 (Lambda)             (None, 16, 16)       0           lambda_132[0][0]                 
__________________________________________________________________________________________________
lambda_144 (Lambda)             (None, 16, 16)       0           lambda_143[0][0]                 
__________________________________________________________________________________________________
lambda_147 (Lambda)             (None, 16, 16)       0           lambda_146[0][0]                 
__________________________________________________________________________________________________
lambda_3 (Lambda)               (None, 16, 16, 1)    0           lambda_2[0][0]                   
__________________________________________________________________________________________________
lambda_6 (Lambda)               (None, 16, 16, 1)    0           lambda_5[0][0]                   
__________________________________________________________________________________________________
lambda_9 (Lambda)               (None, 16, 16, 1)    0           lambda_8[0][0]                   
__________________________________________________________________________________________________
lambda_12 (Lambda)              (None, 16, 16, 1)    0           lambda_11[0][0]                  
__________________________________________________________________________________________________
lambda_15 (Lambda)              (None, 16, 16, 1)    0           lambda_14[0][0]                  
__________________________________________________________________________________________________
lambda_18 (Lambda)              (None, 16, 16, 1)    0           lambda_17[0][0]                  
__________________________________________________________________________________________________
lambda_21 (Lambda)              (None, 16, 16, 1)    0           lambda_20[0][0]                  
__________________________________________________________________________________________________
lambda_24 (Lambda)              (None, 16, 16, 1)    0           lambda_23[0][0]                  
__________________________________________________________________________________________________
lambda_27 (Lambda)              (None, 16, 16, 1)    0           lambda_26[0][0]                  
__________________________________________________________________________________________________
lambda_30 (Lambda)              (None, 16, 16, 1)    0           lambda_29[0][0]                  
__________________________________________________________________________________________________
lambda_33 (Lambda)              (None, 16, 16, 1)    0           lambda_32[0][0]                  
__________________________________________________________________________________________________
lambda_36 (Lambda)              (None, 16, 16, 1)    0           lambda_35[0][0]                  
__________________________________________________________________________________________________
lambda_39 (Lambda)              (None, 16, 16, 1)    0           lambda_38[0][0]                  
__________________________________________________________________________________________________
lambda_42 (Lambda)              (None, 16, 16, 1)    0           lambda_41[0][0]                  
__________________________________________________________________________________________________
lambda_45 (Lambda)              (None, 16, 16, 1)    0           lambda_44[0][0]                  
__________________________________________________________________________________________________
lambda_48 (Lambda)              (None, 16, 16, 1)    0           lambda_47[0][0]                  
__________________________________________________________________________________________________
lambda_51 (Lambda)              (None, 16, 16, 1)    0           lambda_50[0][0]                  
__________________________________________________________________________________________________
lambda_54 (Lambda)              (None, 16, 16, 1)    0           lambda_53[0][0]                  
__________________________________________________________________________________________________
lambda_57 (Lambda)              (None, 16, 16, 1)    0           lambda_56[0][0]                  
__________________________________________________________________________________________________
lambda_60 (Lambda)              (None, 16, 16, 1)    0           lambda_59[0][0]                  
__________________________________________________________________________________________________
lambda_63 (Lambda)              (None, 16, 16, 1)    0           lambda_62[0][0]                  
__________________________________________________________________________________________________
lambda_66 (Lambda)              (None, 16, 16, 1)    0           lambda_65[0][0]                  
__________________________________________________________________________________________________
lambda_69 (Lambda)              (None, 16, 16, 1)    0           lambda_68[0][0]                  
__________________________________________________________________________________________________
lambda_72 (Lambda)              (None, 16, 16, 1)    0           lambda_71[0][0]                  
__________________________________________________________________________________________________
lambda_75 (Lambda)              (None, 16, 16, 1)    0           lambda_74[0][0]                  
__________________________________________________________________________________________________
lambda_78 (Lambda)              (None, 16, 16, 1)    0           lambda_77[0][0]                  
__________________________________________________________________________________________________
lambda_89 (Lambda)              (None, 16, 16, 1)    0           lambda_88[0][0]                  
__________________________________________________________________________________________________
lambda_92 (Lambda)              (None, 16, 16, 1)    0           lambda_91[0][0]                  
__________________________________________________________________________________________________
lambda_103 (Lambda)             (None, 16, 16, 1)    0           lambda_102[0][0]                 
__________________________________________________________________________________________________
lambda_106 (Lambda)             (None, 16, 16, 1)    0           lambda_105[0][0]                 
__________________________________________________________________________________________________
lambda_117 (Lambda)             (None, 16, 16, 1)    0           lambda_116[0][0]                 
__________________________________________________________________________________________________
lambda_120 (Lambda)             (None, 16, 16, 1)    0           lambda_119[0][0]                 
__________________________________________________________________________________________________
lambda_131 (Lambda)             (None, 16, 16, 1)    0           lambda_130[0][0]                 
__________________________________________________________________________________________________
lambda_134 (Lambda)             (None, 16, 16, 1)    0           lambda_133[0][0]                 
__________________________________________________________________________________________________
lambda_145 (Lambda)             (None, 16, 16, 1)    0           lambda_144[0][0]                 
__________________________________________________________________________________________________
lambda_148 (Lambda)             (None, 16, 16, 1)    0           lambda_147[0][0]                 
__________________________________________________________________________________________________
dp1_pb1_xy (Concatenate)        (None, 16, 16, 2)    0           lambda_3[0][0]                   
                                                                 lambda_6[0][0]                   
__________________________________________________________________________________________________
dp1_pb1_vis (TimeDistributed)   (None, 16, 16, 1)    0           dp1_pb1_probmaps[0][0]           
__________________________________________________________________________________________________
dp1_pb2_xy (Concatenate)        (None, 16, 16, 2)    0           lambda_9[0][0]                   
                                                                 lambda_12[0][0]                  
__________________________________________________________________________________________________
dp1_pb2_vis (TimeDistributed)   (None, 16, 16, 1)    0           dp1_pb2_probmaps[0][0]           
__________________________________________________________________________________________________
dp1_pb3_xy (Concatenate)        (None, 16, 16, 2)    0           lambda_15[0][0]                  
                                                                 lambda_18[0][0]                  
__________________________________________________________________________________________________
dp1_pb3_vis (TimeDistributed)   (None, 16, 16, 1)    0           dp1_pb3_probmaps[0][0]           
__________________________________________________________________________________________________
up2_pb2_xy (Concatenate)        (None, 16, 16, 2)    0           lambda_21[0][0]                  
                                                                 lambda_24[0][0]                  
__________________________________________________________________________________________________
up2_pb2_vis (TimeDistributed)   (None, 16, 16, 1)    0           up2_pb2_probmaps[0][0]           
__________________________________________________________________________________________________
up2_pb1_xy (Concatenate)        (None, 16, 16, 2)    0           lambda_27[0][0]                  
                                                                 lambda_30[0][0]                  
__________________________________________________________________________________________________
up2_pb1_vis (TimeDistributed)   (None, 16, 16, 1)    0           up2_pb1_probmaps[0][0]           
__________________________________________________________________________________________________
up2_pb0_xy (Concatenate)        (None, 16, 16, 2)    0           lambda_33[0][0]                  
                                                                 lambda_36[0][0]                  
__________________________________________________________________________________________________
up2_pb0_vis (TimeDistributed)   (None, 16, 16, 1)    0           up2_pb0_probmaps[0][0]           
__________________________________________________________________________________________________
dp3_pb1_xy (Concatenate)        (None, 16, 16, 2)    0           lambda_39[0][0]                  
                                                                 lambda_42[0][0]                  
__________________________________________________________________________________________________
dp3_pb1_vis (TimeDistributed)   (None, 16, 16, 1)    0           dp3_pb1_probmaps[0][0]           
__________________________________________________________________________________________________
dp3_pb2_xy (Concatenate)        (None, 16, 16, 2)    0           lambda_45[0][0]                  
                                                                 lambda_48[0][0]                  
__________________________________________________________________________________________________
dp3_pb2_vis (TimeDistributed)   (None, 16, 16, 1)    0           dp3_pb2_probmaps[0][0]           
__________________________________________________________________________________________________
dp3_pb3_xy (Concatenate)        (None, 16, 16, 2)    0           lambda_51[0][0]                  
                                                                 lambda_54[0][0]                  
__________________________________________________________________________________________________
dp3_pb3_vis (TimeDistributed)   (None, 16, 16, 1)    0           dp3_pb3_probmaps[0][0]           
__________________________________________________________________________________________________
up4_pb2_xy (Concatenate)        (None, 16, 16, 2)    0           lambda_57[0][0]                  
                                                                 lambda_60[0][0]                  
__________________________________________________________________________________________________
up4_pb2_vis (TimeDistributed)   (None, 16, 16, 1)    0           up4_pb2_probmaps[0][0]           
__________________________________________________________________________________________________
up4_pb1_xy (Concatenate)        (None, 16, 16, 2)    0           lambda_63[0][0]                  
                                                                 lambda_66[0][0]                  
__________________________________________________________________________________________________
up4_pb1_vis (TimeDistributed)   (None, 16, 16, 1)    0           up4_pb1_probmaps[0][0]           
__________________________________________________________________________________________________
up4_pb0_xy (Concatenate)        (None, 16, 16, 2)    0           lambda_69[0][0]                  
                                                                 lambda_72[0][0]                  
__________________________________________________________________________________________________
up4_pb0_vis (TimeDistributed)   (None, 16, 16, 1)    0           up4_pb0_probmaps[0][0]           
__________________________________________________________________________________________________
dp5_pb1_xy (Concatenate)        (None, 16, 16, 2)    0           lambda_75[0][0]                  
                                                                 lambda_78[0][0]                  
__________________________________________________________________________________________________
dp5_pb1_vis (TimeDistributed)   (None, 16, 16, 1)    0           dp5_pb1_probmaps[0][0]           
__________________________________________________________________________________________________
dp5_pb2_xy (Concatenate)        (None, 16, 16, 2)    0           lambda_89[0][0]                  
                                                                 lambda_92[0][0]                  
__________________________________________________________________________________________________
dp5_pb2_vis (TimeDistributed)   (None, 16, 16, 1)    0           dp5_pb2_probmaps[0][0]           
__________________________________________________________________________________________________
dp5_pb3_xy (Concatenate)        (None, 16, 16, 2)    0           lambda_103[0][0]                 
                                                                 lambda_106[0][0]                 
__________________________________________________________________________________________________
dp5_pb3_vis (TimeDistributed)   (None, 16, 16, 1)    0           dp5_pb3_probmaps[0][0]           
__________________________________________________________________________________________________
up6_pb2_xy (Concatenate)        (None, 16, 16, 2)    0           lambda_117[0][0]                 
                                                                 lambda_120[0][0]                 
__________________________________________________________________________________________________
up6_pb2_vis (TimeDistributed)   (None, 16, 16, 1)    0           up6_pb2_probmaps[0][0]           
__________________________________________________________________________________________________
up6_pb1_xy (Concatenate)        (None, 16, 16, 2)    0           lambda_131[0][0]                 
                                                                 lambda_134[0][0]                 
__________________________________________________________________________________________________
up6_pb1_vis (TimeDistributed)   (None, 16, 16, 1)    0           up6_pb1_probmaps[0][0]           
__________________________________________________________________________________________________
up6_pb0_xy (Concatenate)        (None, 16, 16, 2)    0           lambda_145[0][0]                 
                                                                 lambda_148[0][0]                 
__________________________________________________________________________________________________
up6_pb0_vis (TimeDistributed)   (None, 16, 16, 1)    0           up6_pb0_probmaps[0][0]           
__________________________________________________________________________________________________
dp1_pb1 (Concatenate)           (None, 16, 16, 3)    0           dp1_pb1_xy[0][0]                 
                                                                 dp1_pb1_vis[0][0]                
__________________________________________________________________________________________________
dp1_pb2 (Concatenate)           (None, 16, 16, 3)    0           dp1_pb2_xy[0][0]                 
                                                                 dp1_pb2_vis[0][0]                
__________________________________________________________________________________________________
dp1_pb3 (Concatenate)           (None, 16, 16, 3)    0           dp1_pb3_xy[0][0]                 
                                                                 dp1_pb3_vis[0][0]                
__________________________________________________________________________________________________
up2_pb2 (Concatenate)           (None, 16, 16, 3)    0           up2_pb2_xy[0][0]                 
                                                                 up2_pb2_vis[0][0]                
__________________________________________________________________________________________________
up2_pb1 (Concatenate)           (None, 16, 16, 3)    0           up2_pb1_xy[0][0]                 
                                                                 up2_pb1_vis[0][0]                
__________________________________________________________________________________________________
up2_pb0 (Concatenate)           (None, 16, 16, 3)    0           up2_pb0_xy[0][0]                 
                                                                 up2_pb0_vis[0][0]                
__________________________________________________________________________________________________
dp3_pb1 (Concatenate)           (None, 16, 16, 3)    0           dp3_pb1_xy[0][0]                 
                                                                 dp3_pb1_vis[0][0]                
__________________________________________________________________________________________________
dp3_pb2 (Concatenate)           (None, 16, 16, 3)    0           dp3_pb2_xy[0][0]                 
                                                                 dp3_pb2_vis[0][0]                
__________________________________________________________________________________________________
dp3_pb3 (Concatenate)           (None, 16, 16, 3)    0           dp3_pb3_xy[0][0]                 
                                                                 dp3_pb3_vis[0][0]                
__________________________________________________________________________________________________
up4_pb2 (Concatenate)           (None, 16, 16, 3)    0           up4_pb2_xy[0][0]                 
                                                                 up4_pb2_vis[0][0]                
__________________________________________________________________________________________________
up4_pb1 (Concatenate)           (None, 16, 16, 3)    0           up4_pb1_xy[0][0]                 
                                                                 up4_pb1_vis[0][0]                
__________________________________________________________________________________________________
up4_pb0 (Concatenate)           (None, 16, 16, 3)    0           up4_pb0_xy[0][0]                 
                                                                 up4_pb0_vis[0][0]                
__________________________________________________________________________________________________
dp5_pb1 (Concatenate)           (None, 16, 16, 3)    0           dp5_pb1_xy[0][0]                 
                                                                 dp5_pb1_vis[0][0]                
__________________________________________________________________________________________________
dp5_pb2 (Concatenate)           (None, 16, 16, 3)    0           dp5_pb2_xy[0][0]                 
                                                                 dp5_pb2_vis[0][0]                
__________________________________________________________________________________________________
dp5_pb3 (Concatenate)           (None, 16, 16, 3)    0           dp5_pb3_xy[0][0]                 
                                                                 dp5_pb3_vis[0][0]                
__________________________________________________________________________________________________
up6_pb2 (Concatenate)           (None, 16, 16, 3)    0           up6_pb2_xy[0][0]                 
                                                                 up6_pb2_vis[0][0]                
__________________________________________________________________________________________________
up6_pb1 (Concatenate)           (None, 16, 16, 3)    0           up6_pb1_xy[0][0]                 
                                                                 up6_pb1_vis[0][0]                
__________________________________________________________________________________________________
up6_pb0 (Concatenate)           (None, 16, 16, 3)    0           up6_pb0_xy[0][0]                 
                                                                 up6_pb0_vis[0][0]                
==================================================================================================
Total params: 16,555,552
Trainable params: 16,320,128
Non-trainable params: 235,424
__________________________________________________________________________________________________
